checkpoints/gill_opt/decision_model.pth.tar (torch, 33895 bytes, 2 tensors)

1.weight f4 [2, 4097]
0	0x3d164af1	0.036692563
1	0x3abeb6be	0.0014550311
2	0x3c617e53	0.013763028
3	0xbcc1adf6	-0.023642521
4	0x3c00f77d	0.007871506
5	0x3bb37ce5	0.005477535
6	0x3d3bb5a7	0.045827534
7	0x3cb816d2	0.02247182
8	0x3d546b5a	0.05186019
9	0x3bba0eb0	0.0056780204
10	0x3d03126d	0.031999994
11	0x3d3c1d41	0.045926336
12	0x3c517f5e	0.012786714
13	0x3c503069	0.012706854
14	0x3dbd2664	0.09235838
15	0x3c78af48	0.015178509
16	0xbc145458	-0.009053312
17	0x3c5e032c	0.013550561
18	0x3cc05d6e	0.02348205
19	0x3d10a8a9	0.035317097
20	0xbc9b0aac	-0.018925987
21	0x3d0764af	0.033055004
22	0x3d3e7ba2	0.046504624
23	0x3bfaf786	0.0076589016
24	0xbc77710a	-0.015102634
25	0xbd3daaad	-0.046305347
26	0x3c2ac660	0.010423273
27	0xbc21e3d5	-0.00988098
28	0x3bddd981	0.0067703133
29	0x3dfe5290	0.12418091
30	0xbc46c27c	-0.01213133
31	0xbd889124	-0.066683084
32	0x3d5ab91a	0.053399183
33	0xbb02ed50	-0.0019977875
34	0xbd94dc57	-0.07268589
35	0x3ba8302e	0.0051326966
36	0x3ce93950	0.028469712
37	0xbc917ef5	-0.017760733
38	0x3db124f5	0.08649627
39	0xbb056a5c	-0.0020357585
40	0xbcace213	-0.021103894
41	0x3d3c0a7c	0.045908436
42	0xbcba0b55	-0.022710482
43	0x3ca3f811	0.020015748
44	0x3c03d4b3	0.008046317
45	0x3cc0860d	0.02350142
46	0xbc02f56f	-0.007993086
47	0xbd4c57e8	-0.04988852
48	0x3b669a8b	0.003518733
49	0xbd77449f	-0.060368177
50	0x3be8c064	0.007103013
51	0xbd249879	-0.04018447
52	0xbbc57899	-0.0060263393
53	0x3c1b8d3a	0.00949412
54	0x3bb4af90	0.0055140927
55	0x3d93d604	0.072185546
56	0x3c69ad07	0.014262444
57	0x3b25316f	0.0025206467
58	0x3c96788f	0.018368034
59	0xbc395f7f	-0.011314272
60	0x3c41c5c5	0.011826937
61	0x3a86c16c	0.0010281033
62	0x3d0aa52a	0.03384892
63	0x3cb206cc	0.021731757
64	0x3d212b44	0.039347902
65	0x3b2650ce	0.0025377753
66	0x3ca5f603	0.02025891
67	0x3d369e31	0.044584457
68	0x3c429100	0.011875391
69	0x3b944980	0.0045253634
70	0xbc1ebe61	-0.009688945
71	0xbd6d0b4e	-0.05787211
72	0x3c2425e1	0.010018797
73	0x3ce1b408	0.027551666
74	0x3d259aca	0.04043082
75	0x3d0a84cc	0.03381805
76	0xbd329ac1	-0.043604616
77	0x3bcd5e2f	0.006267331
78	0x3bf09242	0.007341654
79	0x3bd16545	0.006390246
80	0xbbcc9481	-0.006243289
81	0x3d07f875	0.03319593
82	0xbcab5875	-0.020916203
83	0x3beab4dd	0.007162674
84	0xbc9b1223	-0.018929547
85	0x3d100719	0.03516302
86	0xbd0cbdb3	-0.0343606
87	0x3c18eae0	0.009333342
88	0x3bf01a07	0.0073273215
89	0x3c8bae60	0.017050922
90	0x3bc26508	0.005932454
91	0xbcd0f11a	-0.025505591
92	0xbc838763	-0.016055768
93	0xbca62ed8	-0.020286009
94	0x3cacdcd1	0.021101387
95	0x3b90249f	0.004398897
96	0xbd2abcdc	-0.041684017
97	0x3babb86a	0.0052404897
98	0x3d034fef	0.032058652
99	0x3b4214f6	0.0029614544
100	0xbcaafd56	-0.020872753
101	0x3daaaae5	0.08333377
102	0xbd99fa46	-0.07518439
103	0x3d1c6294	0.03817995
104	0xbc8c0eb6	-0.017096858
105	0x3be2e840	0.006924659
106	0x3ab4cd4b	0.0013794092
107	0x3ca6e238	0.020371541
108	0xbd68a504	-0.056797996
109	0xbc08803b	-0.008331354
110	0x3c4958d6	0.012289247
111	0xbc5890ef	-0.013218149
112	0xbce9f1f0	-0.028557748
113	0xbdad0b1f	-0.08449387
114	0xbc68cbf1	-0.01420878
115	0x3ce48ac8	0.027898207
116	0xbbbf8854	-0.005845109
117	0x3d31a116	0.043366514
118	0xbd23e660	-0.040014625
119	0x3c983e0a	0.01858427
120	0xbc1239b3	-0.008924889
121	0xbc92db70	-0.017926902
122	0xbd7c4f5f	-0.06159913
123	0xbcb72856	-0.0223581
124	0x3d23bab0	0.03997296
125	0xbbc9d783	-0.006159724
126	0xbd82a11e	-0.06378387
127	0xbaed190e	-0.0018089132
128	0xbc630bad	-0.013857764
129	0x3b9ba76e	0.004750184
130	0x3aa218d6	0.0012367021
131	0xbcdfb78a	-0.027309198
132	0xbcf19c3a	-0.02949344
133	0xbcff7975	-0.031185845
134	0xba1380af	-0.00056267803
135	0x3d205807	0.03914645
136	0x3cb2aba5	0.021810362
137	0x3d47be6d	0.04876559
138	0xbd0c1db6	-0.034208022
139	0xbd30cbe6	-0.043163203
140	0xbd36648e	-0.04452949
141	0xbcf7eb56	-0.030263584
142	0xbd4c860d	-0.04993253
143	0x3c4355e4	0.011922333
144	0x3cf5dd62	0.03001279
145	0x3d12ab38	0.03580782
146	0x3d80d81d	0.0629122
147	0xba4ecf6d	-0.0007889185
148	0x3d5c4f73	0.053786706
149	0xbd1e6c64	-0.038677588
150	0x3cf99a4b	0.03046908
151	0xbb813df8	-0.003944155
152	0x3c5c9c57	0.013465009
153	0x3c52cb88	0.012865908
154	0xbd6af775	-0.0573649
155	0xbc013c7b	-0.007887955
156	0xbb9d8c26	-0.0048079668
157	0xbadaf39a	-0.0016704679
158	0xbc9d8b17	-0.019231362
159	0xbb462103	-0.003023208
160	0x3be41b88	0.00696129
161	0xbd4b90eb	-0.04969875
162	0x3c2fc677	0.01072847
163	0x3bc9aa0a	0.0061543034
164	0x3cd6129f	0.026131926
165	0xbb32a1de	-0.0027257125
166	0xbbb19e29	-0.0054204655
167	0x3bd843c1	0.006599874
168	0x3bd7b3e6	0.006582725
169	0x3c9053b3	0.017618036
170	0x3c8756f6	0.016520958
171	0x3c8d459e	0.01724511
172	0x3d08ccaf	0.033398326
173	0x3d9a94a7	0.075478844
174	0x3c830d38	0.015997514
175	0x3cb2f309	0.021844404
176	0xbcfca277	-0.030839188
177	0xbc729852	-0.014806824
178	0xbc061914	-0.00818469
179	0xbd1fda4f	-0.039026555
180	0xbb0ac240	-0.002117291
181	0x3b77fa0f	0.0037838256
182	0xbcc7ffdd	-0.024413997
183	0x3cac980c	0.021068595
184	0x3cced7a8	0.025249317
185	0xbd8866ba	-0.066602185
186	0xbc9c6fd3	-0.01909629
187	0xbd5f519b	-0.054521184
188	0x3d195a29	0.0374395
189	0xbca056ad	-0.01957258
190	0xbc9accc2	-0.018896464
191	0xbd5fa7f5	-0.054603536
192	0x3b820615	0.00396801
193	0x3b8d0243	0.004303248
194	0x3b9120bb	0.0044289506
195	0xbd98f0e7	-0.074678235
196	0xbc4bf5ae	-0.012448711
197	0x3c609dfd	0.013709542
198	0xbd0ea926	-0.03482928
199	0xbcf89ee9	-0.030349212
200	0xbd80a06b	-0.06280597
201	0xbd61bd5c	-0.055112228
202	0xbd91349b	-0.07090112
203	0xbd5e1ac2	-0.054224737
204	0x3c898b63	0.016790098
205	0xbb4d6835	-0.003134263
206	0xbb135799	-0.0022482632
207	0xbd59d308	-0.05317977
208	0x3b0bbae9	0.0021321124
209	0x3bb76f74	0.005598003
210	0x3d2f0e71	0.04273838
211	0xbc19ba1e	-0.009382753
212	0xbb12b9bb	-0.0022388536
213	0xbd234321	-0.03985894
214	0xbcf893c1	-0.030343892
215	0xbc41fb89	-0.011839756
216	0xbc88b396	-0.016687196
217	0x3d42f9ec	0.047601625
218	0xbbf35b30	-0.007426642
219	0x3aa61043	0.0012669641
220	0xbd4cb8a1	-0.049980763
221	0xbd004d9a	-0.031324007
222	0xbb396576	-0.0028289235
223	0x3cfbc7f2	0.03073499
224	0x3d733497	0.059376325
225	0xbc093518	-0.008374475
226	0xbd7e4b33	-0.062083434
227	0x3c62e2f6	0.013848057
228	0x3c56b574	0.013104785
229	0xbbf5ab5a	-0.0074972333
230	0xbca86429	-0.020555573
231	0xbc220fd7	-0.009891472
232	0x3b153883	0.002276928
233	0xbd5c1e65	-0.053739924
234	0x3d46959b	0.04848252
235	0x3ce12804	0.027484901
236	0x3cb51ba3	0.022107905
237	0xbbfe358d	-0.0077578486
238	0x3c65f942	0.0140364785
239	0xbd219894	-0.03945215
240	0x3d49e75c	0.049292907
241	0xbc8c8b89	-0.01715638
242	0xbc33effb	-0.010982509
243	0xbd15c405	-0.036563892
244	0x3ca9ea9a	0.02074175
245	0xba9f6f66	-0.0012163937
246	0xbc5bcee1	-0.013416023
247	0x3cf21263	0.029549783
248	0xbbce503c	-0.006296186
249	0xbad3da2d	-0.0016163044
250	0xbd3e18f0	-0.0464105
251	0x3d1e9de8	0.03872481
252	0xbcda796e	-0.02666923
253	0x3d510166	0.051026724
254	0xbc749303	-0.014927628
255	0x3bd6b543	0.00655237

1.bias f4 [2]
0	0xbb30812c	-0.0026932461
1	0x3c0905f8	0.0083632395
