checkpoints/gill_opt/decision_model.pth.tar (torch, 33831 bytes, 2 tensors)

1.weight f4 [2, 4096]
000000 63 67 1b 3d 5b d1 04 bc 41 f0 a0 3c 5c 0b e0 bc
       0.037940394 -0.008106555 0.019645812 -0.027349167
000010 df 85 56 bc 37 ec f6 3b b6 da 42 3d 14 e4 96 3c
       -0.013093441 0.007535483 0.04757186 0.018419303
000020 1d 14 18 3d 61 11 34 3c 29 4b ee 3c c7 79 49 3d
       0.037128557 0.010990472 0.029088574 0.0491884
000030 18 e4 6d 3c 2a 27 4f 3c d6 53 a0 3d 02 88 f7 3c
       0.014519714 0.012643615 0.078284904 0.03021622
000040 51 c5 3c bd 84 22 c9 3c 8c bd 46 3c ab 2e 09 3d
       -0.046086613 0.024552591 0.012130152 0.03349177
000050 f3 a1 08 bd b8 2e 0c 3d 00 5e 29 3d 15 f3 7d 3c
       -0.03335757 0.034224242 0.04134941 0.01549985
000060 ef 01 a1 bc 38 b5 65 bd e8 86 13 3c f3 0a 0d bc
       -0.019654242 -0.056081027 0.009004332 -0.0086085675
000070 ad ad 55 bb 03 d7 08 3e eb 49 b6 bc b7 44 88 bd
       -0.003260474 0.1336327 -0.022252044 -0.06653731
000080 2d b2 73 3d 83 da a8 bb 82 5f 58 bd 3f 22 79 bb
       0.059496094 -0.0051530018 -0.05282546 -0.0038014797
000090 28 9a 88 3c cc 4a 2a bc 25 29 ad 3d 4f d8 fb b8
       0.01667507 -0.0103938095 0.08455113 -0.00012008903
0000a0 9b 50 45 bc c7 ea 7c 3d ec 68 39 bc b2 e8 f3 3b
       -0.012043144 0.06174734 -0.011316519 0.007443511
0000b0 01 87 5f 3c 4f 32 a6 3c 21 7a fc 3a cd 4e 8c bd
       0.013643027 0.02028766 0.0019262471 -0.068509676
0000c0 f2 9b b8 bc a7 2e 69 bd 48 65 66 3c 1b 2c 16 bd
       -0.022535298 -0.056929257 0.014062233 -0.036663156
0000d0 ae 4e 53 bc bd 83 e5 3c 97 33 f3 bb 0a 55 b0 3d
       -0.012897177 0.02801692 -0.0074219215 0.0860997
0000e0 ad 70 ae 3b 52 76 b3 bb e5 3d 9d 3c d7 b7 8f bc
       0.0053234906 -0.0054767514 0.019194553 -0.017543716
0000f0 a3 3e 42 3c 95 94 1a 3c 6d df b0 3c 67 7d 7c 3c
       0.011855754 0.009434839 0.021590913 0.015410758
000100 ac 36 23 3d 2b 3f 77 bc 81 0d 9d 3c 99 88 21 3d
       0.03984706 -0.015090744 0.019171478 0.03943691
000110 13 42 35 3c 9d 5a f0 3a 12 1f 95 bc bf fa 49 bd
       0.011063117 0.0018337552 -0.018203292 -0.049311396
000120 f6 e2 c7 3b 63 78 10 3d 9b 6e 25 3d 42 01 ee 3c
       0.006100054 0.03527106 0.040388685 0.029053334
000130 21 6e 6c bd c9 54 6f 3c 1b 4b 18 3c ba cb 3f bc
       -0.057722215 0.014607617 0.00929525 -0.011706287
000140 8e 87 48 bb 07 e9 f2 3c 77 dc 85 bc 7a 2f 99 3b
       -0.0030598375 0.029652132 -0.016340477 0.004674849
000150 18 64 91 3b 44 3f 45 3d 4c 55 5e bd b8 a8 0b b9
       0.004436981 0.048156038 -0.054280564 -0.00013318926
000160 d0 56 9d bb 9b 3d 7b 3c 85 09 5a 3b 66 03 9d bc
       -0.0048016086 0.015334512 0.0033269834 -0.01916666
000170 fd 7e c3 bb 98 ca be bb 0d 16 82 3c 6c 18 9b 3c
       -0.005966066 -0.005822491 0.015879655 0.018932544
000180 ef 15 4f bd 63 97 26 3c 79 0a 56 3d ac 9d 5e 3c
       -0.050558027 0.010167929 0.05225608 0.013587397
000190 fa 4c e1 bc 33 63 a0 3d 23 1a 8f bd b2 6a 24 3d
       -0.027502526 0.07831421 -0.06987407 0.040140815
0001a0 f5 13 c1 bc 7a 5e fd 3b fc d4 a2 bc 9a 35 6d 3c
       -0.023569087 0.0077322097 -0.01987695 0.014478112
0001b0 97 74 4c bd c6 6b 36 bc e1 1e 7f 3c 8e ff 28 3c
       -0.049915876 -0.011134094 0.015571327 0.010314835
0001c0 bd 6a 18 bd 13 f0 d6 bd 73 0a af 3a 20 da 1d 3d
       -0.03721117 -0.10495009 0.0013354555 0.0385381
0001d0 34 c0 8d bb 52 c4 fe 3c 68 8f 06 bd c1 13 ac 3c
       -0.004325891 0.031099472 -0.032851607 0.021005513
0001e0 8c 8c 88 ba ee 43 57 bb 5b 7d 78 bd 18 7f fd bc
       -0.0010417863 -0.0032846886 -0.060666423 -0.030944392
0001f0 10 39 57 3d 2d 32 72 bb 8b fd 8c bd 96 8c 6c 3b
       0.052544653 -0.0036956177 -0.06884297 0.0036094538
000200 07 e2 0b bd 81 03 3f 3a a9 00 1d 3c 1f b0 08 bd
       -0.034151103 0.0007286594 0.009582677 -0.033371087
000210 22 cc a0 bc 3a e4 82 bc 7a f6 69 3a c3 29 0b 3d
       -0.019628588 -0.015977968 0.00089249725 0.033975374
000220 88 b4 0c 3c 86 ad 99 3d a8 9f 52 bd c3 1c f3 bc
       0.008587964 0.075038 -0.05142179 -0.0296768
000230 0f f8 36 bd 20 82 07 bd 5b 8e 08 bd c7 1f b9 3c
       -0.04467016 -0.03308308 -0.033338886 0.02259816
000240 0b 0c 0f 3d 7b c2 48 3d b4 37 55 3d 89 89 ed bc
       0.034923594 0.049013596 0.052055076 -0.028996246
000250 dd bd 93 3d 6e 7a db bc a7 49 c8 3c cb cb f8 3b
       0.07213948 -0.026791777 0.024449183 0.0075926534
000260 f9 16 e2 3c dc bf 06 3c df 42 39 bd b4 ed 3d bc
       0.027598845 0.008224454 -0.04522979 -0.011592317
000270 1f cf 85 bc 46 12 a7 bb e9 bc 81 bb 9b 4d 96 3b
       -0.016334115 -0.005098614 -0.0039592874 0.004586888
000280 7d a0 15 3c dd 93 70 bd 15 e2 f4 3c f1 b4 7e 3b
       0.009132502 -0.058734763 0.02989296 0.0038865174
000290 cf e9 13 3d 52 5b f0 bb 30 b4 fb bc 14 9b 91 ba
       0.03611165 -0.007335105 -0.030725569 -0.0011108839
0002a0 54 77 57 3c 10 61 1e 3d d1 12 da 3c 65 84 3a 3c
       0.013151009 0.038666785 0.0266203 0.011384104
0002b0 49 13 86 3c 90 24 b2 3d e6 3a 08 3c 4f 5a 67 3c
       0.016366618 0.0869838 0.008314824 0.014120652
0002c0 dd 50 21 bd 11 7c 02 bc d3 0a 59 bc 52 f5 32 bd
       -0.039383758 -0.00796415 -0.01324721 -0.043690987
0002d0 14 22 13 bc a0 50 30 bc f5 6b d0 bc ee 77 87 3c
       -0.008980293 -0.01076141 -0.025442103 0.01653668
0002e0 5e ff 98 3c 6e 2c 72 bd e1 82 2c bc 7a b0 56 bd
       0.018676456 -0.059124403 -0.010529251 -0.052414395
0002f0 af f4 3a 3d 98 de fe bc 47 64 d5 bb 76 97 8e bd
       0.045643505 -0.031112 -0.006512198 -0.06962483
000300 2a ec 92 bb b1 07 ad 3c 97 1e 04 bb 86 c8 a3 bd
       -0.0044837194 0.021121832 -0.0020159835 -0.07997231
000310 c2 68 51 bc d1 d3 98 3c fe 92 32 bd 72 c6 08 bd
       -0.012781324 0.01865569 -0.043597214 -0.033392377
000320 de 5d 64 bd a5 fb 72 bd b9 3b 86 bd e1 cf 76 bd
       -0.05575358 -0.05932202 -0.0655436 -0.060256843
000330 5b 40 ae 3c 22 95 a2 bc 7b b0 0e 3c 9a 04 5f bd
       0.021270921 -0.019846503 0.008709068 -0.054447748
000340 46 83 74 bc 20 22 14 3b ce c1 49 3d 76 5e c8 bc
       -0.014923876 0.0022603348 0.049257092 -0.024459105
000350 a5 de bc bb de b7 94 bc f9 88 14 bc 39 24 56 bc
       -0.005763846 -0.018154081 -0.00906586 -0.01307016
000360 0c 7b 93 bb c0 72 24 3d 04 dc 26 bb f0 a6 99 3c
       -0.0045007523 0.040148497 -0.002546073 0.01875636
000370 93 bb 93 bd cb 79 16 bd 56 35 a3 3c ff a7 8b 3c
       -0.07213511 -0.036737245 0.019922893 0.01704788
000380 8f 2d 89 3d 58 8f 1c bb ae cc 19 bd b2 17 71 3b
       0.06698143 -0.002388915 -0.037548713 0.0036787805
000390 42 b2 c6 3b 9c b0 a5 3b f3 bf 56 bd a2 20 8a bc
       0.0060637305 0.005056454 -0.05242915 -0.016861264
0003a0 41 6a 31 bc 99 11 4d bd f1 e4 72 3d 08 05 96 3c
       -0.010828556 -0.05006561 0.059300367 0.018312946
0003b0 44 49 8f 3c 91 b5 c5 bb 23 5c ca 3a 83 63 fe bc
       0.01749099 -0.0060336073 0.0015438836 -0.03105331
0003c0 88 7d f2 3c 7f ee 42 bc 33 5e 94 bc a5 35 d6 bc
       0.029600874 -0.011897682 -0.018111324 -0.026148627
0003d0 e1 fb 8c 3c 8d b2 74 3c 8c 87 d2 bc 11 5f bd 3c
       0.017209949 0.014935148 -0.0256994 0.02311662
0003e0 ec be db bb 1e 4a 5d bc 1e 22 d7 bc cc e7 23 3d
       -0.0067061093 -0.01350644 -0.026261386 0.04001598
0003f0 28 64 fd bb f5 a3 43 3d f6 90 08 3a 15 49 50 3b
       -0.007732887 0.047763783 0.0005209589 0.0031781842

1.bias f4 [2]
000000 90 92 24 bc 6f c2 3d bb
       -0.010044709 -0.0028955003
